…
input_1 (InputLayer)            [(None, 32, 9)]      0                                            
__________________________________________________________________________________________________
tf_op_layer_TemporalFusionTrans [(None, 32, 1)]      0           input_1[0][0]                    
__________________________________________________________________________________________________
tf_op_layer_TemporalFusionTrans [(None, 32)]         0           tf_op_layer_TemporalFusionTransfo
__________________________________________________________________________________________________
sequential (Sequential)         (None, 32, 160)      160         tf_op_layer_TemporalFusionTransfo
__________________________________________________________________________________________________
tf_op_layer_TemporalFusionTrans [(None, 160)]        0           sequential[1][0]                 
__________________________________________________________________________________________________
tf_op_layer_TemporalFusionTrans [(None, 1, 160)]     0           tf_op_layer_TemporalFusionTransfo
__________________________________________________________________________________________________
flatten (Flatten)               (None, 160)          0           tf_op_layer_TemporalFusionTransfo
__________________________________________________________________________________________________
dense_9 (Dense)                 (None, 160)          25760       flatten[0][0]                    
__________________________________________________________________________________________________
tf_op_layer_TemporalFusionTrans [(None, 1, 160)]     0           tf_op_layer_TemporalFusionTransfo
__________________________________________________________________________________________________
activation (Activation)         (None, 160)          0           dense_9[0][0]                    
__________________________________________________________________________________________________
dense_13 (Dense)                (None, 1, 160)       25760       tf_op_layer_TemporalFusionTransfo
__________________________________________________________________________________________________
dense_10 (Dense)                (None, 160)          25760       activation[0][0]                 
__________________________________________________________________________________________________
activation_2 (Activation)       (None, 1, 160)       0           dense_13[0][0]                   
__________________________________________________________________________________________________
dropout (Dropout)               (None, 160)          0           dense_10[0][0]                   
__________________________________________________________________________________________________
dense_14 (Dense)                (None, 1, 160)       25760       activation_2[0][0]               
__________________________________________________________________________________________________
dense_11 (Dense)                (None, 1)            161         dropout[0][0]                    
__________________________________________________________________________________________________
dense_12 (Dense)                (None, 1)            161         dropout[0][0]                    
__________________________________________________________________________________________________
dropout_1 (Dropout)             (None, 1, 160)       0           dense_14[0][0]                   
__________________________________________________________________________________________________
dense_8 (Dense)                 (None, 1)            161         flatten[0][0]                    
__________________________________________________________________________________________________
multiply (Multiply)             (None, 1)            0           dense_11[0][0]                   
                                                                 dense_12[0][0]                   
__________________________________________________________________________________________________
dense_15 (Dense)                (None, 1, 160)       25760       dropout_1[0][0]                  
__________________________________________________________________________________________________
dense_16 (Dense)                (None, 1, 160)       25760       dropout_1[0][0]                  
__________________________________________________________________________________________________
add (Add)                       (None, 1)            0           dense_8[0][0]                    
                                                                 multiply[0][0]                   
__________________________________________________________________________________________________
multiply_1 (Multiply)           (None, 1, 160)       0           dense_15[0][0]                   
                                                                 dense_16[0][0]                   
__________________________________________________________________________________________________
layer_normalization (LayerNorma (None, 1)            2           add[0][0]                        
__________________________________________________________________________________________________
add_1 (Add)                     (None, 1, 160)       0           tf_op_layer_TemporalFusionTransfo
                                                                 multiply_1[0][0]                 
__________________________________________________________________________________________________
activation_1 (Activation)       (None, 1)            0           layer_normalization[0][0]        
__________________________________________________________________________________________________
layer_normalization_1 (LayerNor (None, 1, 160)       320         add_1[0][0]                      
__________________________________________________________________________________________________
tf_op_layer_TemporalFusionTrans [(None, 1, 1)]       0           activation_1[0][0]               
__________________________________________________________________________________________________
tf_op_layer_TemporalFusionTrans [(None, 1, 160)]     0           layer_normalization_1[0][0]      
__________________________________________________________________________________________________
multiply_2 (Multiply)           (None, 1, 160)       0           tf_op_layer_TemporalFusionTransfo
                                                                 tf_op_layer_TemporalFusionTransfo
__________________________________________________________________________________________________
tf_op_layer_TemporalFusionTrans [(None, 160)]        0           multiply_2[0][0]                 
__________________________________________________________________________________________________
dense_17 (Dense)                (None, 160)          25760       tf_op_layer_TemporalFusionTransfo
__________________________________________________________________________________________________
activation_3 (Activation)       (None, 160)          0           dense_17[0][0]                   
__________________________________________________________________________________________________
tf_op_layer_TemporalFusionTrans [(None, 32, 8)]      0           input_1[0][0]                    
__________________________________________________________________________________________________
dense_18 (Dense)                (None, 160)          25760       activation_3[0][0]               
__________________________________________________________________________________________________
tf_op_layer_TemporalFusionTrans [(None, 32, 1)]      0           tf_op_layer_TemporalFusionTransfo
__________________________________________________________________________________________________
tf_op_layer_TemporalFusionTrans [(None, 32, 1)]      0           tf_op_layer_TemporalFusionTransfo
…
tf_op_layer_TemporalFusionTrans [(None, 32, 1)]      0           tf_op_layer_TemporalFusionTransfo
__________________________________________________________________________________________________
tf_op_layer_TemporalFusionTrans [(None, 32, 1)]      0           tf_op_layer_TemporalFusionTransfo
__________________________________________________________________________________________________
tf_op_layer_TemporalFusionTrans [(None, 32, 1)]      0           tf_op_layer_TemporalFusionTransfo
__________________________________________________________________________________________________
dropout_2 (Dropout)             (None, 160)          0           dense_18[0][0]                   
__________________________________________________________________________________________________
time_distributed_1 (TimeDistrib (None, 32, 160)      320         tf_op_layer_TemporalFusionTransfo
__________________________________________________________________________________________________
time_distributed_2 (TimeDistrib (None, 32, 160)      320         tf_op_layer_TemporalFusionTransfo
__________________________________________________________________________________________________
time_distributed_3 (TimeDistrib (None, 32, 160)      320         tf_op_layer_TemporalFusionTransfo
__________________________________________________________________________________________________
time_distributed_4 (TimeDistrib (None, 32, 160)      320         tf_op_layer_TemporalFusionTransfo
__________________________________________________________________________________________________
time_distributed_5 (TimeDistrib (None, 32, 160)      320         tf_op_layer_TemporalFusionTransfo
__________________________________________________________________________________________________
time_distributed_6 (TimeDistrib (None, 32, 160)      320         tf_op_layer_TemporalFusionTransfo
__________________________________________________________________________________________________
time_distributed_7 (TimeDistrib (None, 32, 160)      320         tf_op_layer_TemporalFusionTransfo
__________________________________________________________________________________________________
time_distributed (TimeDistribut (None, 32, 160)      320         tf_op_layer_TemporalFusionTransfo
__________________________________________________________________________________________________
dense_19 (Dense)                (None, 160)          25760       dropout_2[0][0]                  
__________________________________________________________________________________________________
dense_20 (Dense)                (None, 160)          25760       dropout_2[0][0]                  
__________________________________________________________________________________________________
tf_op_layer_TemporalFusionTrans [(None, 32, 160, 7)] 0           time_distributed_1[0][0]         
                                                                 time_distributed_2[0][0]         
                                                                 time_distributed_3[0][0]         
…
                                                                 time_distributed_5[0][0]         
                                                                 time_distributed_6[0][0]         
                                                                 time_distributed_7[0][0]         
__________________________________________________________________________________________________
tf_op_layer_TemporalFusionTrans [(None, 32, 160, 1)] 0           time_distributed[0][0]           
__________________________________________________________________________________________________
multiply_3 (Multiply)           (None, 160)          0           dense_19[0][0]                   
                                                                 dense_20[0][0]                   
__________________________________________________________________________________________________
tf_op_layer_TemporalFusionTrans [(None, 24, 160, 7)] 0           tf_op_layer_TemporalFusionTransfo
__________________________________________________________________________________________________
tf_op_layer_TemporalFusionTrans [(None, 24, 160, 1)] 0           tf_op_layer_TemporalFusionTransfo
__________________________________________________________________________________________________
add_2 (Add)                     (None, 160)          0           tf_op_layer_TemporalFusionTransfo
                                                                 multiply_3[0][0]                 
__________________________________________________________________________________________________
tf_op_layer_TemporalFusionTrans [(None, 24, 160, 8)] 0           tf_op_layer_TemporalFusionTransfo
                                                                 tf_op_layer_TemporalFusionTransfo
__________________________________________________________________________________________________
layer_normalization_2 (LayerNor (None, 160)          320         add_2[0][0]                      
__________________________________________________________________________________________________
tf_op_layer_TemporalFusionTrans [(None, 24, 1280)]   0           tf_op_layer_TemporalFusionTransfo
__________________________________________________________________________________________________
tf_op_layer_TemporalFusionTrans [(None, 1, 160)]     0           layer_normalization_2[0][0]      
__________________________________________________________________________________________________
tf_op_layer_TemporalFusionTrans [(None, 8, 160, 7)]  0           tf_op_layer_TemporalFusionTransfo
__________________________________________________________________________________________________
time_distributed_9 (TimeDistrib (None, 24, 160)      204960      tf_op_layer_TemporalFusionTransfo
__________________________________________________________________________________________________
time_distributed_10 (TimeDistri (None, 1, 160)       25600       tf_op_layer_TemporalFusionTransfo
__________________________________________________________________________________________________
tf_op_layer_TemporalFusionTrans [(None, 8, 1120)]    0           tf_op_layer_TemporalFusionTransfo
__________________________________________________________________________________________________
tf_op_layer_TemporalFusionTrans [(None, 1, 160)]     0           layer_normalization_2[0][0]      
…
tf_op_layer_TemporalFusionTrans [(None, 24, 160)]    0           tf_op_layer_TemporalFusionTransfo
__________________________________________________________________________________________________
tf_op_layer_TemporalFusionTrans [(None, 24, 160)]    0           tf_op_layer_TemporalFusionTransfo
__________________________________________________________________________________________________
tf_op_layer_TemporalFusionTrans [(None, 24, 160)]    0           tf_op_layer_TemporalFusionTransfo
__________________________________________________________________________________________________
time_distributed_47 (TimeDistri (None, 8, 160)       179360      tf_op_layer_TemporalFusionTransfo
__________________________________________________________________________________________________
time_distributed_48 (TimeDistri (None, 1, 160)       25600       tf_op_layer_TemporalFusionTransfo
__________________________________________________________________________________________________
activation_7 (Activation)       (None, 24, 160)      0           tf_op_layer_TemporalFusionTransfo
__________________________________________________________________________________________________
time_distributed_14 (TimeDistri (None, 24, 160)      25760       tf_op_layer_TemporalFusionTransfo
__________________________________________________________________________________________________
time_distributed_18 (TimeDistri (None, 24, 160)      25760       tf_op_layer_TemporalFusionTransfo
__________________________________________________________________________________________________
time_distributed_22 (TimeDistri (None, 24, 160)      25760       tf_op_layer_TemporalFusionTransfo
__________________________________________________________________________________________________
time_distributed_26 (TimeDistri (None, 24, 160)      25760       tf_op_layer_TemporalFusionTransfo
__________________________________________________________________________________________________
time_distributed_30 (TimeDistri (None, 24, 160)      25760       tf_op_layer_TemporalFusionTransfo
__________________________________________________________________________________________________
time_distributed_34 (TimeDistri (None, 24, 160)      25760       tf_op_layer_TemporalFusionTransfo
__________________________________________________________________________________________________
time_distributed_38 (TimeDistri (None, 24, 160)      25760       tf_op_layer_TemporalFusionTransfo
__________________________________________________________________________________________________
time_distributed_42 (TimeDistri (None, 24, 160)      25760       tf_op_layer_TemporalFusionTransfo
__________________________________________________________________________________________________
tf_op_layer_TemporalFusionTrans [(None, 8, 160)]     0           time_distributed_47[0][0]        
                                                                 time_distributed_48[0][0]        
__________________________________________________________________________________________________
…
tf_op_layer_TemporalFusionTrans [(None, 8, 160)]     0           tf_op_layer_TemporalFusionTransfo
__________________________________________________________________________________________________
tf_op_layer_TemporalFusionTrans [(None, 8, 160)]     0           tf_op_layer_TemporalFusionTransfo
__________________________________________________________________________________________________
tf_op_layer_TemporalFusionTrans [(None, 8, 160)]     0           tf_op_layer_TemporalFusionTransfo
__________________________________________________________________________________________________
time_distributed_11 (TimeDistri (None, 24, 160)      25760       activation_7[0][0]               
__________________________________________________________________________________________________
activation_9 (Activation)       (None, 24, 160)      0           time_distributed_14[0][0]        
__________________________________________________________________________________________________
activation_10 (Activation)      (None, 24, 160)      0           time_distributed_18[0][0]        
__________________________________________________________________________________________________
activation_11 (Activation)      (None, 24, 160)      0           time_distributed_22[0][0]        
__________________________________________________________________________________________________
activation_12 (Activation)      (None, 24, 160)      0           time_distributed_26[0][0]        
__________________________________________________________________________________________________
activation_13 (Activation)      (None, 24, 160)      0           time_distributed_30[0][0]        
__________________________________________________________________________________________________
activation_14 (Activation)      (None, 24, 160)      0           time_distributed_34[0][0]        
__________________________________________________________________________________________________
activation_15 (Activation)      (None, 24, 160)      0           time_distributed_38[0][0]        
__________________________________________________________________________________________________
activation_16 (Activation)      (None, 24, 160)      0           time_distributed_42[0][0]        
__________________________________________________________________________________________________
activation_17 (Activation)      (None, 8, 160)       0           tf_op_layer_TemporalFusionTransfo
__________________________________________________________________________________________________
time_distributed_52 (TimeDistri (None, 8, 160)       25760       tf_op_layer_TemporalFusionTransfo
__________________________________________________________________________________________________
time_distributed_56 (TimeDistri (None, 8, 160)       25760       tf_op_layer_TemporalFusionTransfo
__________________________________________________________________________________________________
time_distributed_60 (TimeDistri (None, 8, 160)       25760       tf_op_layer_TemporalFusionTransfo
__________________________________________________________________________________________________
time_distributed_64 (TimeDistri (None, 8, 160)       25760       tf_op_layer_TemporalFusionTransfo
__________________________________________________________________________________________________
time_distributed_68 (TimeDistri (None, 8, 160)       25760       tf_op_layer_TemporalFusionTransfo
__________________________________________________________________________________________________
time_distributed_72 (TimeDistri (None, 8, 160)       25760       tf_op_layer_TemporalFusionTransfo
__________________________________________________________________________________________________
time_distributed_76 (TimeDistri (None, 8, 160)       25760       tf_op_layer_TemporalFusionTransfo
__________________________________________________________________________________________________
dropout_6 (Dropout)             (None, 24, 160)      0           time_distributed_11[0][0]        
__________________________________________________________________________________________________
time_distributed_15 (TimeDistri (None, 24, 160)      25760       activation_9[0][0]               
__________________________________________________________________________________________________
time_distributed_19 (TimeDistri (None, 24, 160)      25760       activation_10[0][0]              
__________________________________________________________________________________________________
time_distributed_23 (TimeDistri (None, 24, 160)      25760       activation_11[0][0]              
__________________________________________________________________________________________________
time_distributed_27 (TimeDistri (None, 24, 160)      25760       activation_12[0][0]              
__________________________________________________________________________________________________
time_distributed_31 (TimeDistri (None, 24, 160)      25760       activation_13[0][0]              
__________________________________________________________________________________________________
time_distributed_35 (TimeDistri (None, 24, 160)      25760       activation_14[0][0]              
__________________________________________________________________________________________________
time_distributed_39 (TimeDistri (None, 24, 160)      25760       activation_15[0][0]              
__________________________________________________________________________________________________
time_distributed_43 (TimeDistri (None, 24, 160)      25760       activation_16[0][0]              
__________________________________________________________________________________________________
time_distributed_49 (TimeDistri (None, 8, 160)       25760       activation_17[0][0]              
__________________________________________________________________________________________________
activation_19 (Activation)      (None, 8, 160)       0           time_distributed_52[0][0]        
__________________________________________________________________________________________________
activation_20 (Activation)      (None, 8, 160)       0           time_distributed_56[0][0]        
__________________________________________________________________________________________________
activation_21 (Activation)      (None, 8, 160)       0           time_distributed_60[0][0]        
__________________________________________________________________________________________________
activation_22 (Activation)      (None, 8, 160)       0           time_distributed_64[0][0]        
__________________________________________________________________________________________________
activation_23 (Activation)      (None, 8, 160)       0           time_distributed_68[0][0]        
__________________________________________________________________________________________________
activation_24 (Activation)      (None, 8, 160)       0           time_distributed_72[0][0]        
__________________________________________________________________________________________________
activation_25 (Activation)      (None, 8, 160)       0           time_distributed_76[0][0]        
__________________________________________________________________________________________________
time_distributed_12 (TimeDistri (None, 24, 8)        1288        dropout_6[0][0]                  
__________________________________________________________________________________________________
time_distributed_13 (TimeDistri (None, 24, 8)        1288        dropout_6[0][0]                  
__________________________________________________________________________________________________
dropout_7 (Dropout)             (None, 24, 160)      0           time_distributed_15[0][0]        
__________________________________________________________________________________________________
dropout_8 (Dropout)             (None, 24, 160)      0           time_distributed_19[0][0]        
__________________________________________________________________________________________________
dropout_9 (Dropout)             (None, 24, 160)      0           time_distributed_23[0][0]        
__________________________________________________________________________________________________
dropout_10 (Dropout)            (None, 24, 160)      0           time_distributed_27[0][0]        
__________________________________________________________________________________________________
dropout_11 (Dropout)            (None, 24, 160)      0           time_distributed_31[0][0]        
__________________________________________________________________________________________________
dropout_12 (Dropout)            (None, 24, 160)      0           time_distributed_35[0][0]        
__________________________________________________________________________________________________
dropout_13 (Dropout)            (None, 24, 160)      0           time_distributed_39[0][0]        
__________________________________________________________________________________________________
dropout_14 (Dropout)            (None, 24, 160)      0           time_distributed_43[0][0]        
__________________________________________________________________________________________________
dense_25 (Dense)                (None, 160)          25760       tf_op_layer_TemporalFusionTransfo
__________________________________________________________________________________________________
dense_29 (Dense)                (None, 160)          25760       tf_op_layer_TemporalFusionTransfo
__________________________________________________________________________________________________
dropout_15 (Dropout)            (None, 8, 160)       0           time_distributed_49[0][0]        
__________________________________________________________________________________________________
time_distributed_53 (TimeDistri (None, 8, 160)       25760       activation_19[0][0]              
__________________________________________________________________________________________________
time_distributed_57 (TimeDistri (None, 8, 160)       25760       activation_20[0][0]              
__________________________________________________________________________________________________
time_distributed_61 (TimeDistri (None, 8, 160)       25760       activation_21[0][0]              
__________________________________________________________________________________________________
time_distributed_65 (TimeDistri (None, 8, 160)       25760       activation_22[0][0]              
__________________________________________________________________________________________________
time_distributed_69 (TimeDistri (None, 8, 160)       25760       activation_23[0][0]              
__________________________________________________________________________________________________
time_distributed_73 (TimeDistri (None, 8, 160)       25760       activation_24[0][0]              
__________________________________________________________________________________________________
time_distributed_77 (TimeDistri (None, 8, 160)       25760       activation_25[0][0]              
__________________________________________________________________________________________________
time_distributed_8 (TimeDistrib (None, 24, 8)        10248       tf_op_layer_TemporalFusionTransfo
__________________________________________________________________________________________________
multiply_7 (Multiply)           (None, 24, 8)        0           time_distributed_12[0][0]        
                                                                 time_distributed_13[0][0]        
__________________________________________________________________________________________________
time_distributed_16 (TimeDistri (None, 24, 160)      25760       dropout_7[0][0]                  
__________________________________________________________________________________________________
time_distributed_17 (TimeDistri (None, 24, 160)      25760       dropout_7[0][0]                  
__________________________________________________________________________________________________
time_distributed_20 (TimeDistri (None, 24, 160)      25760       dropout_8[0][0]                  
__________________________________________________________________________________________________
time_distributed_21 (TimeDistri (None, 24, 160)      25760       dropout_8[0][0]                  
__________________________________________________________________________________________________
time_distributed_24 (TimeDistri (None, 24, 160)      25760       dropout_9[0][0]                  
__________________________________________________________________________________________________
time_distributed_25 (TimeDistri (None, 24, 160)      25760       dropout_9[0][0]                  
__________________________________________________________________________________________________
time_distributed_28 (TimeDistri (None, 24, 160)      25760       dropout_10[0][0]                 
__________________________________________________________________________________________________
time_distributed_29 (TimeDistri (None, 24, 160)      25760       dropout_10[0][0]                 
__________________________________________________________________________________________________
time_distributed_32 (TimeDistri (None, 24, 160)      25760       dropout_11[0][0]                 
__________________________________________________________________________________________________
time_distributed_33 (TimeDistri (None, 24, 160)      25760       dropout_11[0][0]                 
__________________________________________________________________________________________________
time_distributed_36 (TimeDistri (None, 24, 160)      25760       dropout_12[0][0]                 
__________________________________________________________________________________________________
time_distributed_37 (TimeDistri (None, 24, 160)      25760       dropout_12[0][0]                 
__________________________________________________________________________________________________
time_distributed_40 (TimeDistri (None, 24, 160)      25760       dropout_13[0][0]                 
__________________________________________________________________________________________________
time_distributed_41 (TimeDistri (None, 24, 160)      25760       dropout_13[0][0]                 
__________________________________________________________________________________________________
time_distributed_44 (TimeDistri (None, 24, 160)      25760       dropout_14[0][0]                 
__________________________________________________________________________________________________
time_distributed_45 (TimeDistri (None, 24, 160)      25760       dropout_14[0][0]                 
__________________________________________________________________________________________________
activation_5 (Activation)       (None, 160)          0           dense_25[0][0]                   
__________________________________________________________________________________________________
activation_6 (Activation)       (None, 160)          0           dense_29[0][0]                   
__________________________________________________________________________________________________
time_distributed_50 (TimeDistri (None, 8, 7)         1127        dropout_15[0][0]                 
__________________________________________________________________________________________________
time_distributed_51 (TimeDistri (None, 8, 7)         1127        dropout_15[0][0]                 
__________________________________________________________________________________________________
dropout_16 (Dropout)            (None, 8, 160)       0           time_distributed_53[0][0]        
__________________________________________________________________________________________________
dropout_17 (Dropout)            (None, 8, 160)       0           time_distributed_57[0][0]        
__________________________________________________________________________________________________
dropout_18 (Dropout)            (None, 8, 160)       0           time_distributed_61[0][0]        
__________________________________________________________________________________________________
dropout_19 (Dropout)            (None, 8, 160)       0           time_distributed_65[0][0]        
__________________________________________________________________________________________________
dropout_20 (Dropout)            (None, 8, 160)       0           time_distributed_69[0][0]        
__________________________________________________________________________________________________
dropout_21 (Dropout)            (None, 8, 160)       0           time_distributed_73[0][0]        
__________________________________________________________________________________________________
dropout_22 (Dropout)            (None, 8, 160)       0           time_distributed_77[0][0]        
__________________________________________________________________________________________________
add_6 (Add)                     (None, 24, 8)        0           time_distributed_8[0][0]         
                                                                 multiply_7[0][0]                 
__________________________________________________________________________________________________
multiply_8 (Multiply)           (None, 24, 160)      0           time_distributed_16[0][0]        
                                                                 time_distributed_17[0][0]        
__________________________________________________________________________________________________
multiply_9 (Multiply)           (None, 24, 160)      0           time_distributed_20[0][0]        
                                                                 time_distributed_21[0][0]        
__________________________________________________________________________________________________
multiply_10 (Multiply)          (None, 24, 160)      0           time_distributed_24[0][0]        
                                                                 time_distributed_25[0][0]        
__________________________________________________________________________________________________
multiply_11 (Multiply)          (None, 24, 160)      0           time_distributed_28[0][0]        
                                                                 time_distributed_29[0][0]        
__________________________________________________________________________________________________
multiply_12 (Multiply)          (None, 24, 160)      0           time_distributed_32[0][0]        
                                                                 time_distributed_33[0][0]        
__________________________________________________________________________________________________
multiply_13 (Multiply)          (None, 24, 160)      0           time_distributed_36[0][0]        
                                                                 time_distributed_37[0][0]        
__________________________________________________________________________________________________
multiply_14 (Multiply)          (None, 24, 160)      0           time_distributed_40[0][0]        
                                                                 time_distributed_41[0][0]        
__________________________________________________________________________________________________
multiply_15 (Multiply)          (None, 24, 160)      0           time_distributed_44[0][0]        
                                                                 time_distributed_45[0][0]        
__________________________________________________________________________________________________
dense_26 (Dense)                (None, 160)          25760       activation_5[0][0]               
__________________________________________________________________________________________________
dense_30 (Dense)                (None, 160)          25760       activation_6[0][0]               
__________________________________________________________________________________________________
time_distributed_46 (TimeDistri (None, 8, 7)         7847        tf_op_layer_TemporalFusionTransfo
__________________________________________________________________________________________________
multiply_17 (Multiply)          (None, 8, 7)         0           time_distributed_50[0][0]        
                                                                 time_distributed_51[0][0]        
__________________________________________________________________________________________________
time_distributed_54 (TimeDistri (None, 8, 160)       25760       dropout_16[0][0]                 
__________________________________________________________________________________________________
time_distributed_55 (TimeDistri (None, 8, 160)       25760       dropout_16[0][0]                 
__________________________________________________________________________________________________
time_distributed_58 (TimeDistri (None, 8, 160)       25760       dropout_17[0][0]                 
__________________________________________________________________________________________________
time_distributed_59 (TimeDistri (None, 8, 160)       25760       dropout_17[0][0]                 
__________________________________________________________________________________________________
time_distributed_62 (TimeDistri (None, 8, 160)       25760       dropout_18[0][0]                 
__________________________________________________________________________________________________
time_distributed_63 (TimeDistri (None, 8, 160)       25760       dropout_18[0][0]                 
__________________________________________________________________________________________________
time_distributed_66 (TimeDistri (None, 8, 160)       25760       dropout_19[0][0]                 
__________________________________________________________________________________________________
time_distributed_67 (TimeDistri (None, 8, 160)       25760       dropout_19[0][0]                 
__________________________________________________________________________________________________
time_distributed_70 (TimeDistri (None, 8, 160)       25760       dropout_20[0][0]                 
__________________________________________________________________________________________________
time_distributed_71 (TimeDistri (None, 8, 160)       25760       dropout_20[0][0]                 
__________________________________________________________________________________________________
time_distributed_74 (TimeDistri (None, 8, 160)       25760       dropout_21[0][0]                 
__________________________________________________________________________________________________
time_distributed_75 (TimeDistri (None, 8, 160)       25760       dropout_21[0][0]                 
__________________________________________________________________________________________________
time_distributed_78 (TimeDistri (None, 8, 160)       25760       dropout_22[0][0]                 
__________________________________________________________________________________________________
time_distributed_79 (TimeDistri (None, 8, 160)       25760       dropout_22[0][0]                 
__________________________________________________________________________________________________
layer_normalization_6 (LayerNor (None, 24, 8)        16          add_6[0][0]                      
__________________________________________________________________________________________________
add_7 (Add)                     (None, 24, 160)      0           tf_op_layer_TemporalFusionTransfo
                                                                 multiply_8[0][0]                 
__________________________________________________________________________________________________
add_8 (Add)                     (None, 24, 160)      0           tf_op_layer_TemporalFusionTransfo
                                                                 multiply_9[0][0]                 
__________________________________________________________________________________________________
add_9 (Add)                     (None, 24, 160)      0           tf_op_layer_TemporalFusionTransfo
                                                                 multiply_10[0][0]                
__________________________________________________________________________________________________
add_10 (Add)                    (None, 24, 160)      0           tf_op_layer_TemporalFusionTransfo
                                                                 multiply_11[0][0]                
__________________________________________________________________________________________________
add_11 (Add)                    (None, 24, 160)      0           tf_op_layer_TemporalFusionTransfo
                                                                 multiply_12[0][0]                
__________________________________________________________________________________________________
add_12 (Add)                    (None, 24, 160)      0           tf_op_layer_TemporalFusionTransfo
                                                                 multiply_13[0][0]                
__________________________________________________________________________________________________
add_13 (Add)                    (None, 24, 160)      0           tf_op_layer_TemporalFusionTransfo
                                                                 multiply_14[0][0]                
__________________________________________________________________________________________________
add_14 (Add)                    (None, 24, 160)      0           tf_op_layer_TemporalFusionTransfo
                                                                 multiply_15[0][0]                
__________________________________________________________________________________________________
dropout_4 (Dropout)             (None, 160)          0           dense_26[0][0]                   
__________________________________________________________________________________________________
dropout_5 (Dropout)             (None, 160)          0           dense_30[0][0]                   
__________________________________________________________________________________________________
add_15 (Add)                    (None, 8, 7)         0           time_distributed_46[0][0]        
                                                                 multiply_17[0][0]                
__________________________________________________________________________________________________
multiply_18 (Multiply)          (None, 8, 160)       0           time_distributed_54[0][0]        
                                                                 time_distributed_55[0][0]        
__________________________________________________________________________________________________
multiply_19 (Multiply)          (None, 8, 160)       0           time_distributed_58[0][0]        
                                                                 time_distributed_59[0][0]        
__________________________________________________________________________________________________
multiply_20 (Multiply)          (None, 8, 160)       0           time_distributed_62[0][0]        
                                                                 time_distributed_63[0][0]        
__________________________________________________________________________________________________
multiply_21 (Multiply)          (None, 8, 160)       0           time_distributed_66[0][0]        
                                                                 time_distributed_67[0][0]        
__________________________________________________________________________________________________
multiply_22 (Multiply)          (None, 8, 160)       0           time_distributed_70[0][0]        
                                                                 time_distributed_71[0][0]        
__________________________________________________________________________________________________
multiply_23 (Multiply)          (None, 8, 160)       0           time_distributed_74[0][0]        
                                                                 time_distributed_75[0][0]        
__________________________________________________________________________________________________
multiply_24 (Multiply)          (None, 8, 160)       0           time_distributed_78[0][0]        
                                                                 time_distributed_79[0][0]        
__________________________________________________________________________________________________
activation_8 (Activation)       (None, 24, 8)        0           layer_normalization_6[0][0]      
__________________________________________________________________________________________________
layer_normalization_7 (LayerNor (None, 24, 160)      320         add_7[0][0]                      
__________________________________________________________________________________________________
layer_normalization_8 (LayerNor (None, 24, 160)      320         add_8[0][0]                      
__________________________________________________________________________________________________
layer_normalization_9 (LayerNor (None, 24, 160)      320         add_9[0][0]                      
__________________________________________________________________________________________________
layer_normalization_10 (LayerNo (None, 24, 160)      320         add_10[0][0]                     
__________________________________________________________________________________________________
layer_normalization_11 (LayerNo (None, 24, 160)      320         add_11[0][0]                     
__________________________________________________________________________________________________
layer_normalization_12 (LayerNo (None, 24, 160)      320         add_12[0][0]                     
__________________________________________________________________________________________________
layer_normalization_13 (LayerNo (None, 24, 160)      320         add_13[0][0]                     
__________________________________________________________________________________________________
layer_normalization_14 (LayerNo (None, 24, 160)      320         add_14[0][0]                     
__________________________________________________________________________________________________
dense_27 (Dense)                (None, 160)          25760       dropout_4[0][0]                  
__________________________________________________________________________________________________
dense_28 (Dense)                (None, 160)          25760       dropout_4[0][0]                  
__________________________________________________________________________________________________
dense_31 (Dense)                (None, 160)          25760       dropout_5[0][0]                  
__________________________________________________________________________________________________
dense_32 (Dense)                (None, 160)          25760       dropout_5[0][0]                  
__________________________________________________________________________________________________
layer_normalization_15 (LayerNo (None, 8, 7)         14          add_15[0][0]                     
__________________________________________________________________________________________________
add_16 (Add)                    (None, 8, 160)       0           tf_op_layer_TemporalFusionTransfo
                                                                 multiply_18[0][0]                
__________________________________________________________________________________________________
add_17 (Add)                    (None, 8, 160)       0           tf_op_layer_TemporalFusionTransfo
                                                                 multiply_19[0][0]                
__________________________________________________________________________________________________
add_18 (Add)                    (None, 8, 160)       0           tf_op_layer_TemporalFusionTransfo
                                                                 multiply_20[0][0]                
__________________________________________________________________________________________________
add_19 (Add)                    (None, 8, 160)       0           tf_op_layer_TemporalFusionTransfo
                                                                 multiply_21[0][0]                
__________________________________________________________________________________________________
add_20 (Add)                    (None, 8, 160)       0           tf_op_layer_TemporalFusionTransfo
                                                                 multiply_22[0][0]                
__________________________________________________________________________________________________
add_21 (Add)                    (None, 8, 160)       0           tf_op_layer_TemporalFusionTransfo
                                                                 multiply_23[0][0]                
__________________________________________________________________________________________________
add_22 (Add)                    (None, 8, 160)       0           tf_op_layer_TemporalFusionTransfo
                                                                 multiply_24[0][0]                
__________________________________________________________________________________________________
tf_op_layer_TemporalFusionTrans [(None, 24, 1, 8)]   0           activation_8[0][0]               
__________________________________________________________________________________________________
…
                                                                 layer_normalization_10[0][0]     
                                                                 layer_normalization_11[0][0]     
                                                                 layer_normalization_12[0][0]     
                                                                 layer_normalization_13[0][0]     
                                                                 layer_normalization_14[0][0]     
__________________________________________________________________________________________________
multiply_5 (Multiply)           (None, 160)          0           dense_27[0][0]                   
                                                                 dense_28[0][0]                   
__________________________________________________________________________________________________
multiply_6 (Multiply)           (None, 160)          0           dense_31[0][0]                   
                                                                 dense_32[0][0]                   
__________________________________________________________________________________________________
activation_18 (Activation)      (None, 8, 7)         0           layer_normalization_15[0][0]     
__________________________________________________________________________________________________
layer_normalization_16 (LayerNo (None, 8, 160)       320         add_16[0][0]                     
__________________________________________________________________________________________________
layer_normalization_17 (LayerNo (None, 8, 160)       320         add_17[0][0]                     
__________________________________________________________________________________________________
layer_normalization_18 (LayerNo (None, 8, 160)       320         add_18[0][0]                     
__________________________________________________________________________________________________
layer_normalization_19 (LayerNo (None, 8, 160)       320         add_19[0][0]                     
__________________________________________________________________________________________________
layer_normalization_20 (LayerNo (None, 8, 160)       320         add_20[0][0]                     
__________________________________________________________________________________________________
layer_normalization_21 (LayerNo (None, 8, 160)       320         add_21[0][0]                     
__________________________________________________________________________________________________
layer_normalization_22 (LayerNo (None, 8, 160)       320         add_22[0][0]                     
__________________________________________________________________________________________________
multiply_16 (Multiply)          (None, 24, 160, 8)   0           tf_op_layer_TemporalFusionTransfo
                                                                 tf_op_layer_TemporalFusionTransfo
__________________________________________________________________________________________________
add_4 (Add)                     (None, 160)          0           tf_op_layer_TemporalFusionTransfo
                                                                 multiply_5[0][0]                 
__________________________________________________________________________________________________
add_5 (Add)                     (None, 160)          0           tf_op_layer_TemporalFusionTransfo
                                                                 multiply_6[0][0]                 
__________________________________________________________________________________________________
tf_op_layer_TemporalFusionTrans [(None, 8, 1, 7)]    0           activation_18[0][0]              
__________________________________________________________________________________________________
…
                                                                 layer_normalization_20[0][0]     
                                                                 layer_normalization_21[0][0]     
                                                                 layer_normalization_22[0][0]     
__________________________________________________________________________________________________
tf_op_layer_TemporalFusionTrans [(None, 24, 160)]    0           multiply_16[0][0]                
__________________________________________________________________________________________________
layer_normalization_4 (LayerNor (None, 160)          320         add_4[0][0]                      
__________________________________________________________________________________________________
layer_normalization_5 (LayerNor (None, 160)          320         add_5[0][0]                      
__________________________________________________________________________________________________
multiply_25 (Multiply)          (None, 8, 160, 7)    0           tf_op_layer_TemporalFusionTransfo
                                                                 tf_op_layer_TemporalFusionTransfo
__________________________________________________________________________________________________
dense_21 (Dense)                (None, 160)          25760       tf_op_layer_TemporalFusionTransfo
__________________________________________________________________________________________________
cu_dnnlstm (CuDNNLSTM)          [(None, 24, 160), (N 206080      tf_op_layer_TemporalFusionTransfo
                                                                 layer_normalization_4[0][0]      
                                                                 layer_normalization_5[0][0]      
__________________________________________________________________________________________________
tf_op_layer_TemporalFusionTrans [(None, 8, 160)]     0           multiply_25[0][0]                
__________________________________________________________________________________________________
activation_4 (Activation)       (None, 160)          0           dense_21[0][0]                   
__________________________________________________________________________________________________
cu_dnnlstm_1 (CuDNNLSTM)        (None, 8, 160)       206080      tf_op_layer_TemporalFusionTransfo
                                                                 cu_dnnlstm[0][1]                 
                                                                 cu_dnnlstm[0][2]                 
__________________________________________________________________________________________________
dense_22 (Dense)                (None, 160)          25760       activation_4[0][0]               
__________________________________________________________________________________________________
tf_op_layer_TemporalFusionTrans [(None, 32, 160)]    0           cu_dnnlstm[0][0]                 
                                                                 cu_dnnlstm_1[0][0]               
__________________________________________________________________________________________________
dropout_3 (Dropout)             (None, 160)          0           dense_22[0][0]                   
__________________________________________________________________________________________________
dropout_23 (Dropout)            (None, 32, 160)      0           tf_op_layer_TemporalFusionTransfo
__________________________________________________________________________________________________
dense_23 (Dense)                (None, 160)          25760       dropout_3[0][0]                  
__________________________________________________________________________________________________
dense_24 (Dense)                (None, 160)          25760       dropout_3[0][0]                  
__________________________________________________________________________________________________
time_distributed_80 (TimeDistri (None, 32, 160)      25760       dropout_23[0][0]                 
__________________________________________________________________________________________________
time_distributed_81 (TimeDistri (None, 32, 160)      25760       dropout_23[0][0]                 
__________________________________________________________________________________________________
multiply_4 (Multiply)           (None, 160)          0           dense_23[0][0]                   
                                                                 dense_24[0][0]                   
__________________________________________________________________________________________________
multiply_26 (Multiply)          (None, 32, 160)      0           time_distributed_80[0][0]        
                                                                 time_distributed_81[0][0]        
__________________________________________________________________________________________________
tf_op_layer_TemporalFusionTrans [(None, 32, 160)]    0           tf_op_layer_TemporalFusionTransfo
                                                                 tf_op_layer_TemporalFusionTransfo
__________________________________________________________________________________________________
add_3 (Add)                     (None, 160)          0           tf_op_layer_TemporalFusionTransfo
                                                                 multiply_4[0][0]                 
__________________________________________________________________________________________________
add_23 (Add)                    (None, 32, 160)      0           multiply_26[0][0]                
                                                                 tf_op_layer_TemporalFusionTransfo
__________________________________________________________________________________________________
layer_normalization_3 (LayerNor (None, 160)          320         add_3[0][0]                      
__________________________________________________________________________________________________
layer_normalization_23 (LayerNo (None, 32, 160)      320         add_23[0][0]                     
__________________________________________________________________________________________________
tf_op_layer_TemporalFusionTrans [(None, 1, 160)]     0           layer_normalization_3[0][0]      
__________________________________________________________________________________________________
time_distributed_82 (TimeDistri (None, 32, 160)      25760       layer_normalization_23[0][0]     
__________________________________________________________________________________________________
time_distributed_83 (TimeDistri (None, 1, 160)       25600       tf_op_layer_TemporalFusionTransfo
__________________________________________________________________________________________________
tf_op_layer_TemporalFusionTrans [(None, 32, 160)]    0           time_distributed_82[0][0]        
                                                                 time_distributed_83[0][0]        
__________________________________________________________________________________________________
activation_26 (Activation)      (None, 32, 160)      0           tf_op_layer_TemporalFusionTransfo
__________________________________________________________________________________________________
time_distributed_84 (TimeDistri (None, 32, 160)      25760       activation_26[0][0]              
__________________________________________________________________________________________________
dropout_24 (Dropout)            (None, 32, 160)      0           time_distributed_84[0][0]        
__________________________________________________________________________________________________
time_distributed_85 (TimeDistri (None, 32, 160)      25760       dropout_24[0][0]                 
__________________________________________________________________________________________________
time_distributed_86 (TimeDistri (None, 32, 160)      25760       dropout_24[0][0]                 
__________________________________________________________________________________________________
multiply_27 (Multiply)          (None, 32, 160)      0           time_distributed_85[0][0]        
                                                                 time_distributed_86[0][0]        
__________________________________________________________________________________________________
add_24 (Add)                    (None, 32, 160)      0           layer_normalization_23[0][0]     
                                                                 multiply_27[0][0]                
__________________________________________________________________________________________________
layer_normalization_24 (LayerNo (None, 32, 160)      320         add_24[0][0]                     
__________________________________________________________________________________________________
tf_op_layer_TemporalFusionTrans [(3,)]               0           layer_normalization_24[0][0]     
__________________________________________________________________________________________________
tf_op_layer_TemporalFusionTrans [()]                 0           tf_op_layer_TemporalFusionTransfo
…
                                                                 tf_op_layer_TemporalFusionTransfo
__________________________________________________________________________________________________
tf_op_layer_TemporalFusionTrans [(None, None)]       0           tf_op_layer_TemporalFusionTransfo
__________________________________________________________________________________________________
tf_op_layer_TemporalFusionTrans [(None, None, None)] 0           tf_op_layer_TemporalFusionTransfo
__________________________________________________________________________________________________
dense_113 (Dense)               (None, 32, 160)      25600       layer_normalization_24[0][0]     
__________________________________________________________________________________________________
dense_114 (Dense)               (None, 32, 160)      25600       layer_normalization_24[0][0]     
__________________________________________________________________________________________________
tf_op_layer_TemporalFusionTrans [(None, None, None)] 0           tf_op_layer_TemporalFusionTransfo
__________________________________________________________________________________________________
lambda (Lambda)                 (None, 32, 32)       0           dense_113[0][0]                  
                                                                 dense_114[0][0]                  
__________________________________________________________________________________________________
lambda_1 (Lambda)               (None, None, None)   0           tf_op_layer_TemporalFusionTransfo
__________________________________________________________________________________________________
add_25 (Add)                    (None, 32, 32)       0           lambda[0][0]                     
                                                                 lambda_1[0][0]                   
__________________________________________________________________________________________________
activation_27 (Activation)      (None, 32, 32)       0           add_25[0][0]                     
__________________________________________________________________________________________________
dropout_25 (Dropout)            (None, 32, 32)       0           activation_27[0][0]              
__________________________________________________________________________________________________
dense_112 (Dense)               (None, 32, 160)      25600       layer_normalization_24[0][0]     
__________________________________________________________________________________________________
lambda_2 (Lambda)               (None, 32, 160)      0           dropout_25[0][0]                 
                                                                 dense_112[0][0]                  
__________________________________________________________________________________________________
dropout_26 (Dropout)            (None, 32, 160)      0           lambda_2[0][0]                   
__________________________________________________________________________________________________
dense_115 (Dense)               (None, 32, 160)      25600       dropout_26[0][0]                 
__________________________________________________________________________________________________
dropout_27 (Dropout)            (None, 32, 160)      0           dense_115[0][0]                  
__________________________________________________________________________________________________
dropout_28 (Dropout)            (None, 32, 160)      0           dropout_27[0][0]                 
__________________________________________________________________________________________________
time_distributed_87 (TimeDistri (None, 32, 160)      25760       dropout_28[0][0]                 
__________________________________________________________________________________________________
time_distributed_88 (TimeDistri (None, 32, 160)      25760       dropout_28[0][0]                 
__________________________________________________________________________________________________
multiply_28 (Multiply)          (None, 32, 160)      0           time_distributed_87[0][0]        
                                                                 time_distributed_88[0][0]        
__________________________________________________________________________________________________
add_26 (Add)                    (None, 32, 160)      0           multiply_28[0][0]                
                                                                 layer_normalization_24[0][0]     
__________________________________________________________________________________________________
layer_normalization_25 (LayerNo (None, 32, 160)      320         add_26[0][0]                     
__________________________________________________________________________________________________
time_distributed_89 (TimeDistri (None, 32, 160)      25760       layer_normalization_25[0][0]     
__________________________________________________________________________________________________
activation_28 (Activation)      (None, 32, 160)      0           time_distributed_89[0][0]        
__________________________________________________________________________________________________
time_distributed_90 (TimeDistri (None, 32, 160)      25760       activation_28[0][0]              
__________________________________________________________________________________________________
dropout_29 (Dropout)            (None, 32, 160)      0           time_distributed_90[0][0]        
__________________________________________________________________________________________________
time_distributed_91 (TimeDistri (None, 32, 160)      25760       dropout_29[0][0]                 
__________________________________________________________________________________________________
time_distributed_92 (TimeDistri (None, 32, 160)      25760       dropout_29[0][0]                 
__________________________________________________________________________________________________
multiply_29 (Multiply)          (None, 32, 160)      0           time_distributed_91[0][0]        
                                                                 time_distributed_92[0][0]        
__________________________________________________________________________________________________
add_27 (Add)                    (None, 32, 160)      0           layer_normalization_25[0][0]     
                                                                 multiply_29[0][0]                
__________________________________________________________________________________________________
layer_normalization_26 (LayerNo (None, 32, 160)      320         add_27[0][0]                     
__________________________________________________________________________________________________
time_distributed_93 (TimeDistri (None, 32, 160)      25760       layer_normalization_26[0][0]     
__________________________________________________________________________________________________
time_distributed_94 (TimeDistri (None, 32, 160)      25760       layer_normalization_26[0][0]     
__________________________________________________________________________________________________
multiply_30 (Multiply)          (None, 32, 160)      0           time_distributed_93[0][0]        
                                                                 time_distributed_94[0][0]        
__________________________________________________________________________________________________
add_28 (Add)                    (None, 32, 160)      0           multiply_30[0][0]                
                                                                 layer_normalization_23[0][0]     
__________________________________________________________________________________________________
layer_normalization_27 (LayerNo (None, 32, 160)      320         add_28[0][0]                     
__________________________________________________________________________________________________
tf_op_layer_TemporalFusionTrans [(None, 8, 160)]     0           layer_normalization_27[0][0]     
__________________________________________________________________________________________________
time_distributed_95 (TimeDistri (None, 8, 3)         483         tf_op_layer_TemporalFusionTransfo
==================================================================================================
Total params: 3,534,803
Trainable params: 3,534,803
Non-trainable params: 0
__________________________________________________________________________________________________
None
Cached data "train" updated
Cached data "valid" updated
*** Fitting TemporalFusionTransformer ***
…
